…
2021-12-19 15:02:02 | INFO : Model: simple_u_net_polyphony_classif_softmax
2021-12-19 15:02:02 | INFO : Model parameters: {'n_chan_input': 6, 'n_chan_layers': [128, 180, 150, 100], 'n_ch_out': 2, 'n_bins_in': 216, 'n_bins_out': 72, 'a_lrelu': 0.3, 'p_dropout': 0.2, 'scalefac': 2, 'num_polyphony_steps': 24}
2021-12-19 15:02:03 | INFO : 
==========================================================================================
Layer (type:depth-idx)                   Output Shape              Param #
==========================================================================================
├─LayerNorm: 1-1                         [1, 174, 6, 216]          2,592
├─double_conv: 1-2                       [1, 32, 174, 216]         --
|    └─Sequential: 2-1                   [1, 32, 174, 216]         --
|    |    └─Conv2d: 3-1                  [1, 32, 174, 216]         43,232
|    |    └─BatchNorm2d: 3-2             [1, 32, 174, 216]         64
|    |    └─ReLU: 3-3                    [1, 32, 174, 216]         --
|    |    └─Dropout: 3-4                 [1, 32, 174, 216]         --
|    |    └─Conv2d: 3-5                  [1, 32, 174, 216]         230,432
|    |    └─BatchNorm2d: 3-6             [1, 32, 174, 216]         64
|    |    └─ReLU: 3-7                    [1, 32, 174, 216]         --
|    |    └─Dropout: 3-8                 [1, 32, 174, 216]         --
├─Sequential: 1-3                        [1, 64, 87, 108]          --
|    └─MaxPool2d: 2-2                    [1, 32, 87, 108]          --
|    └─double_conv: 2-3                  [1, 64, 87, 108]          --
|    |    └─Sequential: 3-9              [1, 64, 87, 108]          1,382,784
├─Sequential: 1-4                        [1, 128, 43, 54]          --
|    └─MaxPool2d: 2-4                    [1, 64, 43, 54]           --
|    └─double_conv: 2-5                  [1, 128, 43, 54]          --
|    |    └─Sequential: 3-10             [1, 128, 43, 54]          1,991,424
├─Sequential: 1-5                        [1, 256, 21, 27]          --
|    └─MaxPool2d: 2-6                    [1, 128, 21, 27]          --
|    └─double_conv: 2-7                  [1, 256, 21, 27]          --
|    |    └─Sequential: 3-11             [1, 256, 21, 27]          2,459,136
├─Sequential: 1-6                        [1, 256, 10, 13]          --
|    └─MaxPool2d: 2-8                    [1, 256, 10, 13]          --
|    └─double_conv: 2-9                  [1, 256, 10, 13]          --
|    |    └─Sequential: 3-12             [1, 256, 10, 13]          1,181,184
├─unet_up_concat_padding: 1-7            [1, 512, 21, 27]          --
|    └─Upsample: 2-10                    [1, 256, 20, 26]          --
├─double_conv: 1-8                       [1, 128, 21, 27]          --
|    └─Sequential: 2-11                  [1, 128, 21, 27]          --
|    |    └─Conv2d: 3-13                 [1, 256, 21, 27]          1,179,904
|    |    └─BatchNorm2d: 3-14            [1, 256, 21, 27]          512
|    |    └─ReLU: 3-15                   [1, 256, 21, 27]          --
|    |    └─Dropout: 3-16                [1, 256, 21, 27]          --
|    |    └─Conv2d: 3-17                 [1, 128, 21, 27]          295,040
|    |    └─BatchNorm2d: 3-18            [1, 128, 21, 27]          256
|    |    └─ReLU: 3-19                   [1, 128, 21, 27]          --
|    |    └─Dropout: 3-20                [1, 128, 21, 27]          --
├─unet_up_concat_padding: 1-9            [1, 256, 43, 54]          --
|    └─Upsample: 2-12                    [1, 128, 42, 54]          --
├─double_conv: 1-10                      [1, 64, 43, 54]           --
|    └─Sequential: 2-13                  [1, 64, 43, 54]           --
|    |    └─Conv2d: 3-21                 [1, 128, 43, 54]          819,328
|    |    └─BatchNorm2d: 3-22            [1, 128, 43, 54]          256
|    |    └─ReLU: 3-23                   [1, 128, 43, 54]          --
|    |    └─Dropout: 3-24                [1, 128, 43, 54]          --
|    |    └─Conv2d: 3-25                 [1, 64, 43, 54]           204,864
|    |    └─BatchNorm2d: 3-26            [1, 64, 43, 54]           128
|    |    └─ReLU: 3-27                   [1, 64, 43, 54]           --
|    |    └─Dropout: 3-28                [1, 64, 43, 54]           --
├─unet_up_concat_padding: 1-11           [1, 128, 87, 108]         --
|    └─Upsample: 2-14                    [1, 64, 86, 108]          --
├─double_conv: 1-12                      [1, 32, 87, 108]          --
|    └─Sequential: 2-15                  [1, 32, 87, 108]          --
|    |    └─Conv2d: 3-29                 [1, 64, 87, 108]          663,616
|    |    └─BatchNorm2d: 3-30            [1, 64, 87, 108]          128
|    |    └─ReLU: 3-31                   [1, 64, 87, 108]          --
|    |    └─Dropout: 3-32                [1, 64, 87, 108]          --
|    |    └─Conv2d: 3-33                 [1, 32, 87, 108]          165,920
|    |    └─BatchNorm2d: 3-34            [1, 32, 87, 108]          64
|    |    └─ReLU: 3-35                   [1, 32, 87, 108]          --
|    |    └─Dropout: 3-36                [1, 32, 87, 108]          --
├─unet_up_concat_padding: 1-13           [1, 64, 174, 216]         --
|    └─Upsample: 2-16                    [1, 32, 174, 216]         --
├─double_conv: 1-14                      [1, 128, 174, 216]        --
|    └─Sequential: 2-17                  [1, 128, 174, 216]        --
|    |    └─Conv2d: 3-37                 [1, 32, 174, 216]         460,832
|    |    └─BatchNorm2d: 3-38            [1, 32, 174, 216]         64
|    |    └─ReLU: 3-39                   [1, 32, 174, 216]         --
|    |    └─Dropout: 3-40                [1, 32, 174, 216]         --
|    |    └─Conv2d: 3-41                 [1, 128, 174, 216]        921,728
|    |    └─BatchNorm2d: 3-42            [1, 128, 174, 216]        256
|    |    └─ReLU: 3-43                   [1, 128, 174, 216]        --
|    |    └─Dropout: 3-44                [1, 128, 174, 216]        --
├─Sequential: 1-15                       [1, 180, 174, 72]         --
|    └─Conv2d: 2-18                      [1, 180, 174, 72]         207,540
|    └─LeakyReLU: 2-19                   [1, 180, 174, 72]         --
|    └─MaxPool2d: 2-20                   [1, 180, 174, 72]         --
|    └─Dropout: 2-21                     [1, 180, 174, 72]         --
├─Sequential: 1-16                       [1, 150, 100, 72]         --
|    └─Conv2d: 2-22                      [1, 150, 100, 72]         2,025,150
|    └─LeakyReLU: 2-23                   [1, 150, 100, 72]         --
|    └─Dropout: 2-24                     [1, 150, 100, 72]         --
├─Sequential: 1-17                       [1, 1, 100, 72]           --
|    └─Conv2d: 2-25                      [1, 100, 100, 72]         15,100
|    └─LeakyReLU: 2-26                   [1, 100, 100, 72]         --
|    └─Dropout: 2-27                     [1, 100, 100, 72]         --
|    └─Conv2d: 2-28                      [1, 1, 100, 72]           101
|    └─Sigmoid: 2-29                     [1, 1, 100, 72]           --
├─Sequential: 1-18                       [1, 24, 7, 1]             --
|    └─Conv2d: 2-30                      [1, 128, 9, 9]            327,808
|    └─LeakyReLU: 2-31                   [1, 128, 9, 9]            --
|    └─MaxPool2d: 2-32                   [1, 128, 8, 3]            --
|    └─Dropout: 2-33                     [1, 128, 8, 3]            --
|    └─Conv2d: 2-34                      [1, 24, 7, 1]             18,456
==========================================================================================
Total params: 14,597,963
Trainable params: 14,597,963
Non-trainable params: 0
Total mult-adds (G): 109.75
==========================================================================================
Input size (MB): 0.90
Forward/backward pass size (MB): 228.60
Params size (MB): 58.39
Estimated Total Size (MB): 287.89
…
