…
2021-12-13 09:23:20 | INFO : Model parameters: {'n_chan_input': 6, 'n_chan_layers': [128, 80, 50, 30], 'n_ch_out': 2, 'n_bins_in': 216, 'n_bins_out': 72, 'a_lrelu': 0.3, 'p_dropout': 0.2, 'scalefac': 8, 'embed_dim': 832, 'hidden_size': 416, 'lstm_depth': 1, 'lstm_number': 2}
2021-12-13 09:23:21 | INFO : 
==========================================================================================
Layer (type:depth-idx)                   Output Shape              Param #
==========================================================================================
├─LayerNorm: 1-1                         [1, 174, 6, 216]          2,592
├─double_conv: 1-2                       [1, 8, 174, 216]          --
|    └─Sequential: 2-1                   [1, 8, 174, 216]          --
|    |    └─Conv2d: 3-1                  [1, 8, 174, 216]          10,808
|    |    └─BatchNorm2d: 3-2             [1, 8, 174, 216]          16
|    |    └─ReLU: 3-3                    [1, 8, 174, 216]          --
|    |    └─Dropout: 3-4                 [1, 8, 174, 216]          --
|    |    └─Conv2d: 3-5                  [1, 8, 174, 216]          14,408
|    |    └─BatchNorm2d: 3-6             [1, 8, 174, 216]          16
|    |    └─ReLU: 3-7                    [1, 8, 174, 216]          --
|    |    └─Dropout: 3-8                 [1, 8, 174, 216]          --
├─Sequential: 1-3                        [1, 16, 87, 108]          --
|    └─MaxPool2d: 2-2                    [1, 8, 87, 108]           --
|    └─double_conv: 2-3                  [1, 16, 87, 108]          --
|    |    └─Sequential: 3-9              [1, 16, 87, 108]          86,496
├─Sequential: 1-4                        [1, 32, 43, 54]           --
|    └─MaxPool2d: 2-4                    [1, 16, 43, 54]           --
|    └─double_conv: 2-5                  [1, 32, 43, 54]           --
|    |    └─Sequential: 3-10             [1, 32, 43, 54]           124,608
├─Sequential: 1-5                        [1, 64, 21, 27]           --
|    └─MaxPool2d: 2-6                    [1, 32, 21, 27]           --
|    └─double_conv: 2-7                  [1, 64, 21, 27]           --
|    |    └─Sequential: 3-11             [1, 64, 21, 27]           153,984
├─Sequential: 1-6                        [1, 64, 10, 13]           --
|    └─MaxPool2d: 2-8                    [1, 64, 10, 13]           --
|    └─double_conv: 2-9                  [1, 64, 10, 13]           --
|    |    └─Sequential: 3-12             [1, 64, 10, 13]           74,112
├─blstm_temporal_enc_layer: 1-7          [1, 64, 10, 13]           --
|    └─Flatten: 2-10                     [1, 832, 10]              --
|    └─LSTM: 2-11                        [1, 10, 832]              8,320,000
├─unet_up_concat_padding: 1-8            [1, 128, 21, 27]          --
|    └─Upsample: 2-12                    [1, 64, 20, 26]           --
├─double_conv: 1-9                       [1, 32, 21, 27]           --
|    └─Sequential: 2-13                  [1, 32, 21, 27]           --
|    |    └─Conv2d: 3-13                 [1, 64, 21, 27]           73,792
|    |    └─BatchNorm2d: 3-14            [1, 64, 21, 27]           128
|    |    └─ReLU: 3-15                   [1, 64, 21, 27]           --
|    |    └─Dropout: 3-16                [1, 64, 21, 27]           --
|    |    └─Conv2d: 3-17                 [1, 32, 21, 27]           18,464
|    |    └─BatchNorm2d: 3-18            [1, 32, 21, 27]           64
|    |    └─ReLU: 3-19                   [1, 32, 21, 27]           --
|    |    └─Dropout: 3-20                [1, 32, 21, 27]           --
├─unet_up_concat_padding: 1-10           [1, 64, 43, 54]           --
|    └─Upsample: 2-14                    [1, 32, 42, 54]           --
├─double_conv: 1-11                      [1, 16, 43, 54]           --
|    └─Sequential: 2-15                  [1, 16, 43, 54]           --
|    |    └─Conv2d: 3-21                 [1, 32, 43, 54]           51,232
|    |    └─BatchNorm2d: 3-22            [1, 32, 43, 54]           64
|    |    └─ReLU: 3-23                   [1, 32, 43, 54]           --
|    |    └─Dropout: 3-24                [1, 32, 43, 54]           --
|    |    └─Conv2d: 3-25                 [1, 16, 43, 54]           12,816
|    |    └─BatchNorm2d: 3-26            [1, 16, 43, 54]           32
|    |    └─ReLU: 3-27                   [1, 16, 43, 54]           --
|    |    └─Dropout: 3-28                [1, 16, 43, 54]           --
├─unet_up_concat_padding: 1-12           [1, 32, 87, 108]          --
|    └─Upsample: 2-16                    [1, 16, 86, 108]          --
├─double_conv: 1-13                      [1, 8, 87, 108]           --
|    └─Sequential: 2-17                  [1, 8, 87, 108]           --
|    |    └─Conv2d: 3-29                 [1, 16, 87, 108]          41,488
|    |    └─BatchNorm2d: 3-30            [1, 16, 87, 108]          32
|    |    └─ReLU: 3-31                   [1, 16, 87, 108]          --
|    |    └─Dropout: 3-32                [1, 16, 87, 108]          --
|    |    └─Conv2d: 3-33                 [1, 8, 87, 108]           10,376
|    |    └─BatchNorm2d: 3-34            [1, 8, 87, 108]           16
|    |    └─ReLU: 3-35                   [1, 8, 87, 108]           --
|    |    └─Dropout: 3-36                [1, 8, 87, 108]           --
├─unet_up_concat_padding: 1-14           [1, 16, 174, 216]         --
|    └─Upsample: 2-18                    [1, 8, 174, 216]          --
├─double_conv: 1-15                      [1, 128, 174, 216]        --
|    └─Sequential: 2-19                  [1, 128, 174, 216]        --
|    |    └─Conv2d: 3-37                 [1, 8, 174, 216]          28,808
|    |    └─BatchNorm2d: 3-38            [1, 8, 174, 216]          16
|    |    └─ReLU: 3-39                   [1, 8, 174, 216]          --
|    |    └─Dropout: 3-40                [1, 8, 174, 216]          --
|    |    └─Conv2d: 3-41                 [1, 128, 174, 216]        230,528
|    |    └─BatchNorm2d: 3-42            [1, 128, 174, 216]        256
|    |    └─ReLU: 3-43                   [1, 128, 174, 216]        --
|    |    └─Dropout: 3-44                [1, 128, 174, 216]        --
├─Sequential: 1-16                       [1, 80, 174, 72]          --
|    └─Conv2d: 2-20                      [1, 80, 174, 72]          92,240
|    └─LeakyReLU: 2-21                   [1, 80, 174, 72]          --
|    └─MaxPool2d: 2-22                   [1, 80, 174, 72]          --
|    └─Dropout: 2-23                     [1, 80, 174, 72]          --
├─Sequential: 1-17                       [1, 50, 100, 72]          --
|    └─Conv2d: 2-24                      [1, 50, 100, 72]          300,050
|    └─LeakyReLU: 2-25                   [1, 50, 100, 72]          --
|    └─Dropout: 2-26                     [1, 50, 100, 72]          --
├─Sequential: 1-18                       [1, 1, 100, 72]           --
|    └─Conv2d: 2-27                      [1, 30, 100, 72]          1,530
|    └─LeakyReLU: 2-28                   [1, 30, 100, 72]          --
|    └─Dropout: 2-29                     [1, 30, 100, 72]          --
|    └─Conv2d: 2-30                      [1, 1, 100, 72]           31
|    └─Sigmoid: 2-31                     [1, 1, 100, 72]           --
==========================================================================================
Total params: 9,649,003
Trainable params: 9,649,003
Non-trainable params: 0
Total mult-adds (G): 15.92
==========================================================================================
Input size (MB): 0.90
Forward/backward pass size (MB): 120.84
Params size (MB): 38.60
Estimated Total Size (MB): 160.33
…
