…
2021-12-11 10:04:14 | INFO :  --- Model config: -------------------------------------------- 
2021-12-11 10:04:14 | INFO : Model: deep_cnn_segm_sigmoid
2021-12-11 10:04:14 | INFO : Model parameters: {'n_chan_input': 6, 'n_chan_layers': [40, 40, 30, 10], 'n_prefilt_layers': 5, 'residual': True, 'n_bins_in': 216, 'n_bins_out': 72, 'a_lrelu': 0.3, 'p_dropout': 0.2}
2021-12-11 10:04:15 | INFO : 
==========================================================================================
Layer (type:depth-idx)                   Output Shape              Param #
==========================================================================================
├─LayerNorm: 1-1                         [1, 174, 6, 216]          2,592
├─Sequential: 1-2                        [1, 40, 174, 216]         --
|    └─Conv2d: 2-1                       [1, 40, 174, 216]         54,040
|    └─LeakyReLU: 2-2                    [1, 40, 174, 216]         --
|    └─MaxPool2d: 2-3                    [1, 40, 174, 216]         --
|    └─Dropout: 2-4                      [1, 40, 174, 216]         --
├─ModuleList: 1                          []                        --
|    └─Sequential: 2-5                   [1, 40, 174, 216]         --
|    |    └─Conv2d: 3-1                  [1, 40, 174, 216]         360,040
|    |    └─LeakyReLU: 3-2               [1, 40, 174, 216]         --
|    |    └─MaxPool2d: 3-3               [1, 40, 174, 216]         --
|    |    └─Dropout: 3-4                 [1, 40, 174, 216]         --
|    └─Sequential: 2-6                   [1, 40, 174, 216]         --
|    |    └─Conv2d: 3-5                  [1, 40, 174, 216]         360,040
|    |    └─LeakyReLU: 3-6               [1, 40, 174, 216]         --
|    |    └─MaxPool2d: 3-7               [1, 40, 174, 216]         --
|    |    └─Dropout: 3-8                 [1, 40, 174, 216]         --
|    └─Sequential: 2-7                   [1, 40, 174, 216]         --
|    |    └─Conv2d: 3-9                  [1, 40, 174, 216]         360,040
|    |    └─LeakyReLU: 3-10              [1, 40, 174, 216]         --
|    |    └─MaxPool2d: 3-11              [1, 40, 174, 216]         --
|    |    └─Dropout: 3-12                [1, 40, 174, 216]         --
|    └─Sequential: 2-8                   [1, 40, 174, 216]         --
|    |    └─Conv2d: 3-13                 [1, 40, 174, 216]         360,040
|    |    └─LeakyReLU: 3-14              [1, 40, 174, 216]         --
|    |    └─MaxPool2d: 3-15              [1, 40, 174, 216]         --
|    |    └─Dropout: 3-16                [1, 40, 174, 216]         --
├─Sequential: 1-3                        [1, 40, 174, 72]          --
|    └─Conv2d: 2-9                       [1, 40, 174, 72]          14,440
|    └─LeakyReLU: 2-10                   [1, 40, 174, 72]          --
|    └─MaxPool2d: 2-11                   [1, 40, 174, 72]          --
|    └─Dropout: 2-12                     [1, 40, 174, 72]          --
├─Sequential: 1-4                        [1, 30, 100, 72]          --
|    └─Conv2d: 2-13                      [1, 30, 100, 72]          90,030
|    └─LeakyReLU: 2-14                   [1, 30, 100, 72]          --
|    └─Dropout: 2-15                     [1, 30, 100, 72]          --
├─Sequential: 1-5                        [1, 1, 100, 72]           --
|    └─Conv2d: 2-16                      [1, 10, 100, 72]          310
|    └─LeakyReLU: 2-17                   [1, 10, 100, 72]          --
|    └─Dropout: 2-18                     [1, 10, 100, 72]          --
|    └─Conv2d: 2-19                      [1, 1, 100, 72]           11
|    └─Sigmoid: 2-20                     [1, 1, 100, 72]           --
==========================================================================================
Total params: 1,601,583
Trainable params: 1,601,583
Non-trainable params: 0
Total mult-adds (G): 56.98
==========================================================================================
Input size (MB): 0.90
Forward/backward pass size (MB): 68.31
Params size (MB): 6.41
Estimated Total Size (MB): 75.62
…
