…
2021-12-02 11:18:38 | INFO :  --- Model config: -------------------------------------------- 
2021-12-02 11:18:38 | INFO : Model: basic_cnn_segm_sigmoid
2021-12-02 11:18:38 | INFO : Model parameters: {'n_chan_input': 6, 'n_chan_layers': [280, 180, 120, 100], 'n_ch_out': 2, 'n_bins_in': 216, 'n_bins_out': 72, 'a_lrelu': 0.3, 'p_dropout': 0.2}
2021-12-02 11:18:38 | INFO : 
==========================================================================================
Layer (type:depth-idx)                   Output Shape              Param #
==========================================================================================
├─LayerNorm: 1-1                         [1, 174, 6, 216]          2,592
├─Sequential: 1-2                        [1, 280, 174, 216]        --
|    └─Conv2d: 2-1                       [1, 280, 174, 216]        378,280
|    └─LeakyReLU: 2-2                    [1, 280, 174, 216]        --
|    └─MaxPool2d: 2-3                    [1, 280, 174, 216]        --
|    └─Dropout: 2-4                      [1, 280, 174, 216]        --
├─Sequential: 1-3                        [1, 180, 174, 72]         --
|    └─Conv2d: 2-5                       [1, 180, 174, 72]         453,780
|    └─LeakyReLU: 2-6                    [1, 180, 174, 72]         --
|    └─MaxPool2d: 2-7                    [1, 180, 174, 72]         --
|    └─Dropout: 2-8                      [1, 180, 174, 72]         --
├─Sequential: 1-4                        [1, 120, 100, 72]         --
|    └─Conv2d: 2-9                       [1, 120, 100, 72]         1,620,120
|    └─LeakyReLU: 2-10                   [1, 120, 100, 72]         --
|    └─Dropout: 2-11                     [1, 120, 100, 72]         --
├─Sequential: 1-5                        [1, 1, 100, 72]           --
|    └─Conv2d: 2-12                      [1, 100, 100, 72]         12,100
|    └─LeakyReLU: 2-13                   [1, 100, 100, 72]         --
|    └─Dropout: 2-14                     [1, 100, 100, 72]         --
|    └─Conv2d: 2-15                      [1, 1, 100, 72]           101
|    └─Sigmoid: 2-16                     [1, 1, 100, 72]           --
==========================================================================================
Total params: 2,466,973
Trainable params: 2,466,973
Non-trainable params: 0
Total mult-adds (G): 31.64
==========================================================================================
Input size (MB): 0.90
Forward/backward pass size (MB): 116.76
Params size (MB): 9.87
Estimated Total Size (MB): 127.53
…
