…
2021-12-03 23:25:44 | INFO : Model parameters: {'n_chan_input': 6, 'n_chan_layers': [128, 200, 150, 150], 'n_ch_out': 2, 'n_bins_in': 216, 'n_bins_out': 72, 'a_lrelu': 0.3, 'p_dropout': 0.2, 'scalefac': 4, 'embed_dim': 128, 'num_heads': 8, 'mlp_dim': 8192, 'pos_encoding': 'sinusoidal'}
2021-12-03 23:25:45 | INFO : 
==========================================================================================
Layer (type:depth-idx)                   Output Shape              Param #
==========================================================================================
├─LayerNorm: 1-1                         [1, 174, 6, 216]          2,592
├─double_conv: 1-2                       [1, 16, 174, 216]         --
|    └─Sequential: 2-1                   [1, 16, 174, 216]         --
|    |    └─Conv2d: 3-1                  [1, 16, 174, 216]         21,616
|    |    └─BatchNorm2d: 3-2             [1, 16, 174, 216]         32
|    |    └─ReLU: 3-3                    [1, 16, 174, 216]         --
|    |    └─Dropout: 3-4                 [1, 16, 174, 216]         --
|    |    └─Conv2d: 3-5                  [1, 16, 174, 216]         57,616
|    |    └─BatchNorm2d: 3-6             [1, 16, 174, 216]         32
|    |    └─ReLU: 3-7                    [1, 16, 174, 216]         --
|    |    └─Dropout: 3-8                 [1, 16, 174, 216]         --
├─Sequential: 1-3                        [1, 32, 87, 108]          --
|    └─MaxPool2d: 2-2                    [1, 16, 87, 108]          --
|    └─double_conv: 2-3                  [1, 32, 87, 108]          --
|    |    └─Sequential: 3-9              [1, 32, 87, 108]          345,792
├─Sequential: 1-4                        [1, 64, 43, 54]           --
|    └─MaxPool2d: 2-4                    [1, 32, 43, 54]           --
|    └─double_conv: 2-5                  [1, 64, 43, 54]           --
|    |    └─Sequential: 3-10             [1, 64, 43, 54]           498,048
├─Sequential: 1-5                        [1, 128, 21, 27]          --
|    └─MaxPool2d: 2-6                    [1, 64, 21, 27]           --
|    └─double_conv: 2-7                  [1, 128, 21, 27]          --
|    |    └─Sequential: 3-11             [1, 128, 21, 27]          615,168
├─Sequential: 1-6                        [1, 128, 10, 13]          --
|    └─MaxPool2d: 2-8                    [1, 128, 10, 13]          --
|    └─double_conv: 2-9                  [1, 128, 10, 13]          --
|    |    └─Sequential: 3-12             [1, 128, 10, 13]          295,680
├─transformer_enc_layer: 1-7             [1, 128, 10, 13]          --
|    └─Flatten: 2-10                     [1, 128, 130]             --
|    └─Dropout: 2-11                     [1, 130, 128]             --
|    └─Linear: 2-12                      [1, 130, 128]             16,384
|    └─Linear: 2-13                      [1, 130, 128]             16,384
|    └─Linear: 2-14                      [1, 130, 128]             16,384
|    └─MultiheadAttention: 2-15          [1, 130, 128]             --
|    └─Linear: 2-16                      [1, 130, 128]             16,384
|    └─Dropout: 2-17                     [1, 130, 128]             --
|    └─LayerNorm: 2-18                   [1, 130, 128]             256
|    └─Sequential: 2-19                  [1, 130, 128]             --
|    |    └─Linear: 3-13                 [1, 130, 8192]            1,056,768
|    |    └─ReLU: 3-14                   [1, 130, 8192]            --
|    |    └─Linear: 3-15                 [1, 130, 128]             1,048,704
|    └─Dropout: 2-20                     [1, 130, 128]             --
|    └─LayerNorm: 2-21                   [1, 130, 128]             256
├─transformer_enc_layer: 1-8             [1, 128, 10, 13]          --
|    └─Flatten: 2-22                     [1, 128, 130]             --
|    └─Linear: 2-23                      [1, 130, 128]             16,384
|    └─Linear: 2-24                      [1, 130, 128]             16,384
|    └─Linear: 2-25                      [1, 130, 128]             16,384
|    └─MultiheadAttention: 2-26          [1, 130, 128]             --
|    └─Linear: 2-27                      [1, 130, 128]             16,384
|    └─Dropout: 2-28                     [1, 130, 128]             --
|    └─LayerNorm: 2-29                   [1, 130, 128]             256
|    └─Sequential: 2-30                  [1, 130, 128]             --
|    |    └─Linear: 3-16                 [1, 130, 8192]            1,056,768
|    |    └─ReLU: 3-17                   [1, 130, 8192]            --
|    |    └─Linear: 3-18                 [1, 130, 128]             1,048,704
|    └─Dropout: 2-31                     [1, 130, 128]             --
|    └─LayerNorm: 2-32                   [1, 130, 128]             256
├─transformer_enc_layer: 1-9             [1, 128, 21, 27]          --
|    └─Flatten: 2-33                     [1, 128, 567]             --
|    └─Dropout: 2-34                     [1, 567, 128]             --
|    └─Linear: 2-35                      [1, 567, 128]             16,384
|    └─Linear: 2-36                      [1, 567, 128]             16,384
|    └─Linear: 2-37                      [1, 567, 128]             16,384
|    └─MultiheadAttention: 2-38          [1, 567, 128]             --
|    └─Linear: 2-39                      [1, 567, 128]             16,384
|    └─Dropout: 2-40                     [1, 567, 128]             --
|    └─LayerNorm: 2-41                   [1, 567, 128]             256
|    └─Sequential: 2-42                  [1, 567, 128]             --
|    |    └─Linear: 3-19                 [1, 567, 8192]            1,056,768
|    |    └─ReLU: 3-20                   [1, 567, 8192]            --
|    |    └─Linear: 3-21                 [1, 567, 128]             1,048,704
|    └─Dropout: 2-43                     [1, 567, 128]             --
|    └─LayerNorm: 2-44                   [1, 567, 128]             256
├─transformer_enc_layer: 1-10            [1, 128, 21, 27]          --
|    └─Flatten: 2-45                     [1, 128, 567]             --
|    └─Linear: 2-46                      [1, 567, 128]             16,384
|    └─Linear: 2-47                      [1, 567, 128]             16,384
|    └─Linear: 2-48                      [1, 567, 128]             16,384
|    └─MultiheadAttention: 2-49          [1, 567, 128]             --
|    └─Linear: 2-50                      [1, 567, 128]             16,384
|    └─Dropout: 2-51                     [1, 567, 128]             --
|    └─LayerNorm: 2-52                   [1, 567, 128]             256
|    └─Sequential: 2-53                  [1, 567, 128]             --
|    |    └─Linear: 3-22                 [1, 567, 8192]            1,056,768
|    |    └─ReLU: 3-23                   [1, 567, 8192]            --
|    |    └─Linear: 3-24                 [1, 567, 128]             1,048,704
|    └─Dropout: 2-54                     [1, 567, 128]             --
|    └─LayerNorm: 2-55                   [1, 567, 128]             256
├─unet_up_concat_padding: 1-11           [1, 256, 21, 27]          --
|    └─Upsample: 2-56                    [1, 128, 20, 26]          --
├─double_conv: 1-12                      [1, 64, 21, 27]           --
|    └─Sequential: 2-57                  [1, 64, 21, 27]           --
|    |    └─Conv2d: 3-25                 [1, 128, 21, 27]          295,040
|    |    └─BatchNorm2d: 3-26            [1, 128, 21, 27]          256
|    |    └─ReLU: 3-27                   [1, 128, 21, 27]          --
|    |    └─Dropout: 3-28                [1, 128, 21, 27]          --
|    |    └─Conv2d: 3-29                 [1, 64, 21, 27]           73,792
|    |    └─BatchNorm2d: 3-30            [1, 64, 21, 27]           128
|    |    └─ReLU: 3-31                   [1, 64, 21, 27]           --
|    |    └─Dropout: 3-32                [1, 64, 21, 27]           --
├─unet_up_concat_padding: 1-13           [1, 128, 43, 54]          --
|    └─Upsample: 2-58                    [1, 64, 42, 54]           --
├─double_conv: 1-14                      [1, 32, 43, 54]           --
|    └─Sequential: 2-59                  [1, 32, 43, 54]           --
|    |    └─Conv2d: 3-33                 [1, 64, 43, 54]           204,864
|    |    └─BatchNorm2d: 3-34            [1, 64, 43, 54]           128
|    |    └─ReLU: 3-35                   [1, 64, 43, 54]           --
|    |    └─Dropout: 3-36                [1, 64, 43, 54]           --
|    |    └─Conv2d: 3-37                 [1, 32, 43, 54]           51,232
|    |    └─BatchNorm2d: 3-38            [1, 32, 43, 54]           64
|    |    └─ReLU: 3-39                   [1, 32, 43, 54]           --
|    |    └─Dropout: 3-40                [1, 32, 43, 54]           --
├─unet_up_concat_padding: 1-15           [1, 64, 87, 108]          --
|    └─Upsample: 2-60                    [1, 32, 86, 108]          --
├─double_conv: 1-16                      [1, 16, 87, 108]          --
|    └─Sequential: 2-61                  [1, 16, 87, 108]          --
|    |    └─Conv2d: 3-41                 [1, 32, 87, 108]          165,920
|    |    └─BatchNorm2d: 3-42            [1, 32, 87, 108]          64
|    |    └─ReLU: 3-43                   [1, 32, 87, 108]          --
|    |    └─Dropout: 3-44                [1, 32, 87, 108]          --
|    |    └─Conv2d: 3-45                 [1, 16, 87, 108]          41,488
|    |    └─BatchNorm2d: 3-46            [1, 16, 87, 108]          32
|    |    └─ReLU: 3-47                   [1, 16, 87, 108]          --
|    |    └─Dropout: 3-48                [1, 16, 87, 108]          --
├─unet_up_concat_padding: 1-17           [1, 32, 174, 216]         --
|    └─Upsample: 2-62                    [1, 16, 174, 216]         --
├─double_conv: 1-18                      [1, 128, 174, 216]        --
|    └─Sequential: 2-63                  [1, 128, 174, 216]        --
|    |    └─Conv2d: 3-49                 [1, 16, 174, 216]         115,216
|    |    └─BatchNorm2d: 3-50            [1, 16, 174, 216]         32
|    |    └─ReLU: 3-51                   [1, 16, 174, 216]         --
|    |    └─Dropout: 3-52                [1, 16, 174, 216]         --
|    |    └─Conv2d: 3-53                 [1, 128, 174, 216]        460,928
|    |    └─BatchNorm2d: 3-54            [1, 128, 174, 216]        256
|    |    └─ReLU: 3-55                   [1, 128, 174, 216]        --
|    |    └─Dropout: 3-56                [1, 128, 174, 216]        --
├─Sequential: 1-19                       [1, 200, 174, 72]         --
|    └─Conv2d: 2-64                      [1, 200, 174, 72]         230,600
|    └─LeakyReLU: 2-65                   [1, 200, 174, 72]         --
|    └─MaxPool2d: 2-66                   [1, 200, 174, 72]         --
|    └─Dropout: 2-67                     [1, 200, 174, 72]         --
├─Sequential: 1-20                       [1, 150, 100, 72]         --
|    └─Conv2d: 2-68                      [1, 150, 100, 72]         2,250,150
|    └─LeakyReLU: 2-69                   [1, 150, 100, 72]         --
|    └─Dropout: 2-70                     [1, 150, 100, 72]         --
├─Sequential: 1-21                       [1, 1, 100, 72]           --
|    └─Conv2d: 2-71                      [1, 150, 100, 72]         22,650
|    └─LeakyReLU: 2-72                   [1, 150, 100, 72]         --
|    └─Dropout: 2-73                     [1, 150, 100, 72]         --
|    └─Conv2d: 2-74                      [1, 1, 100, 72]           151
|    └─Sigmoid: 2-75                     [1, 1, 100, 72]           --
==========================================================================================
Total params: 14,435,647
Trainable params: 14,435,647
Non-trainable params: 0
Total mult-adds (G): 51.45
==========================================================================================
Input size (MB): 0.90
Forward/backward pass size (MB): 276.13
Params size (MB): 57.74
Estimated Total Size (MB): 334.77
…
