…
2021-08-25 13:31:43 | INFO :  --- Model config: -------------------------------------------- 
2021-08-25 13:31:43 | INFO : Model: simple_u_net_largekernels
2021-08-25 13:31:43 | INFO : Model parameters: {'n_chan_input': 6, 'n_chan_layers': [64, 30, 20, 10], 'n_ch_out': 2, 'n_bins_in': 216, 'n_bins_out': 72, 'a_lrelu': 0.3, 'p_dropout': 0.2, 'scalefac': 8}
2021-08-25 13:31:43 | INFO : 
==========================================================================================
Layer (type:depth-idx)                   Output Shape              Param #
==========================================================================================
├─LayerNorm: 1-1                         [1, 174, 6, 216]          2,592
├─double_conv: 1-2                       [1, 8, 174, 216]          --
|    └─Sequential: 2-1                   [1, 8, 174, 216]          --
|    |    └─Conv2d: 3-1                  [1, 8, 174, 216]          10,808
|    |    └─BatchNorm2d: 3-2             [1, 8, 174, 216]          16
|    |    └─ReLU: 3-3                    [1, 8, 174, 216]          --
|    |    └─Conv2d: 3-4                  [1, 8, 174, 216]          14,408
|    |    └─BatchNorm2d: 3-5             [1, 8, 174, 216]          16
|    |    └─ReLU: 3-6                    [1, 8, 174, 216]          --
├─down: 1-3                              [1, 16, 87, 108]          --
|    └─Sequential: 2-2                   [1, 16, 87, 108]          --
|    |    └─MaxPool2d: 3-7               [1, 8, 87, 108]           --
|    |    └─double_conv: 3-8             [1, 16, 87, 108]          86,496
├─down: 1-4                              [1, 32, 43, 54]           --
|    └─Sequential: 2-3                   [1, 32, 43, 54]           --
|    |    └─MaxPool2d: 3-9               [1, 16, 43, 54]           --
|    |    └─double_conv: 3-10            [1, 32, 43, 54]           124,608
├─down: 1-5                              [1, 64, 21, 27]           --
|    └─Sequential: 2-4                   [1, 64, 21, 27]           --
|    |    └─MaxPool2d: 3-11              [1, 32, 21, 27]           --
|    |    └─double_conv: 3-12            [1, 64, 21, 27]           153,984
├─down: 1-6                              [1, 64, 10, 13]           --
|    └─Sequential: 2-5                   [1, 64, 10, 13]           --
|    |    └─MaxPool2d: 3-13              [1, 64, 10, 13]           --
|    |    └─double_conv: 3-14            [1, 64, 10, 13]           74,112
├─up: 1-7                                [1, 32, 21, 27]           --
|    └─Upsample: 2-6                     [1, 64, 20, 26]           --
|    └─double_conv: 2-7                  [1, 32, 21, 27]           --
|    |    └─Sequential: 3-15             [1, 32, 21, 27]           92,448
├─up: 1-8                                [1, 16, 43, 54]           --
|    └─Upsample: 2-8                     [1, 32, 42, 54]           --
|    └─double_conv: 2-9                  [1, 16, 43, 54]           --
|    |    └─Sequential: 3-16             [1, 16, 43, 54]           64,144
├─up: 1-9                                [1, 8, 87, 108]           --
|    └─Upsample: 2-10                    [1, 16, 86, 108]          --
|    └─double_conv: 2-11                 [1, 8, 87, 108]           --
|    |    └─Sequential: 3-17             [1, 8, 87, 108]           51,912
├─up: 1-10                               [1, 64, 174, 216]         --
|    └─Upsample: 2-12                    [1, 8, 174, 216]          --
|    └─double_conv: 2-13                 [1, 64, 174, 216]         --
|    |    └─Sequential: 3-18             [1, 64, 174, 216]         144,216
├─Sequential: 1-11                       [1, 30, 174, 72]          --
|    └─Conv2d: 2-14                      [1, 30, 174, 72]          17,310
|    └─LeakyReLU: 2-15                   [1, 30, 174, 72]          --
|    └─MaxPool2d: 2-16                   [1, 30, 174, 72]          --
|    └─Dropout: 2-17                     [1, 30, 174, 72]          --
├─Sequential: 1-12                       [1, 20, 100, 72]          --
|    └─Conv2d: 2-18                      [1, 20, 100, 72]          45,020
|    └─LeakyReLU: 2-19                   [1, 20, 100, 72]          --
|    └─Dropout: 2-20                     [1, 20, 100, 72]          --
├─Sequential: 1-13                       [1, 1, 100, 72]           --
|    └─Conv2d: 2-21                      [1, 10, 100, 72]          210
|    └─LeakyReLU: 2-22                   [1, 10, 100, 72]          --
|    └─Dropout: 2-23                     [1, 10, 100, 72]          --
|    └─Conv2d: 2-24                      [1, 1, 100, 72]           11
|    └─Sigmoid: 2-25                     [1, 1, 100, 72]           --
==========================================================================================
Total params: 882,311
Trainable params: 882,311
Non-trainable params: 0
Total mult-adds (G): 7.59
==========================================================================================
Input size (MB): 0.90
Forward/backward pass size (MB): 65.78
Params size (MB): 3.53
Estimated Total Size (MB): 70.21
==========================================================================================
…
