…
2021-12-01 09:40:40 | INFO :  --- Model config: -------------------------------------------- 
2021-12-01 09:40:40 | INFO : Model: basic_cnn_segm_sigmoid
2021-12-01 09:40:40 | INFO : Model parameters: {'n_chan_input': 6, 'n_chan_layers': [250, 150, 100, 100], 'n_ch_out': 2, 'n_bins_in': 216, 'n_bins_out': 72, 'a_lrelu': 0.3, 'p_dropout': 0.2}
2021-12-01 09:40:41 | INFO : 
==========================================================================================
Layer (type:depth-idx)                   Output Shape              Param #
==========================================================================================
├─LayerNorm: 1-1                         [1, 174, 6, 216]          2,592
├─Sequential: 1-2                        [1, 250, 174, 216]        --
|    └─Conv2d: 2-1                       [1, 250, 174, 216]        337,750
|    └─LeakyReLU: 2-2                    [1, 250, 174, 216]        --
|    └─MaxPool2d: 2-3                    [1, 250, 174, 216]        --
|    └─Dropout: 2-4                      [1, 250, 174, 216]        --
├─Sequential: 1-3                        [1, 150, 174, 72]         --
|    └─Conv2d: 2-5                       [1, 150, 174, 72]         337,650
|    └─LeakyReLU: 2-6                    [1, 150, 174, 72]         --
|    └─MaxPool2d: 2-7                    [1, 150, 174, 72]         --
|    └─Dropout: 2-8                      [1, 150, 174, 72]         --
├─Sequential: 1-4                        [1, 100, 100, 72]         --
|    └─Conv2d: 2-9                       [1, 100, 100, 72]         1,125,100
|    └─LeakyReLU: 2-10                   [1, 100, 100, 72]         --
|    └─Dropout: 2-11                     [1, 100, 100, 72]         --
├─Sequential: 1-5                        [1, 1, 100, 72]           --
|    └─Conv2d: 2-12                      [1, 100, 100, 72]         10,100
|    └─LeakyReLU: 2-13                   [1, 100, 100, 72]         --
|    └─Dropout: 2-14                     [1, 100, 100, 72]         --
|    └─Conv2d: 2-15                      [1, 1, 100, 72]           101
|    └─Sigmoid: 2-16                     [1, 1, 100, 72]           --
==========================================================================================
Total params: 1,813,293
Trainable params: 1,813,293
Non-trainable params: 0
Total mult-adds (G): 25.09
==========================================================================================
Input size (MB): 0.90
Forward/backward pass size (MB): 103.58
Params size (MB): 7.25
Estimated Total Size (MB): 111.74
…
