…
2021-11-18 13:40:28 | INFO : Model parameters: {'n_chan_input': 6, 'n_chan_layers': [64, 30, 20, 10], 'n_ch_out': 2, 'n_bins_in': 216, 'n_bins_out': 72, 'a_lrelu': 0.3, 'p_dropout': 0.2, 'scalefac': 8, 'embed_dim': 64, 'num_heads': 8, 'mlp_dim': 1024, 'pos_encoding': 'sinusoidal'}
2021-11-18 13:40:29 | INFO : 
==========================================================================================
Layer (type:depth-idx)                   Output Shape              Param #
==========================================================================================
├─LayerNorm: 1-1                         [1, 174, 6, 216]          2,592
├─double_conv: 1-2                       [1, 8, 174, 216]          --
|    └─Sequential: 2-1                   [1, 8, 174, 216]          --
|    |    └─Conv2d: 3-1                  [1, 8, 174, 216]          10,808
|    |    └─BatchNorm2d: 3-2             [1, 8, 174, 216]          16
|    |    └─ReLU: 3-3                    [1, 8, 174, 216]          --
|    |    └─Conv2d: 3-4                  [1, 8, 174, 216]          14,408
|    |    └─BatchNorm2d: 3-5             [1, 8, 174, 216]          16
|    |    └─ReLU: 3-6                    [1, 8, 174, 216]          --
├─Sequential: 1-3                        [1, 16, 87, 108]          --
|    └─MaxPool2d: 2-2                    [1, 8, 87, 108]           --
|    └─double_conv: 2-3                  [1, 16, 87, 108]          --
|    |    └─Sequential: 3-7              [1, 16, 87, 108]          86,496
├─Sequential: 1-4                        [1, 32, 43, 54]           --
|    └─MaxPool2d: 2-4                    [1, 16, 43, 54]           --
|    └─double_conv: 2-5                  [1, 32, 43, 54]           --
|    |    └─Sequential: 3-8              [1, 32, 43, 54]           124,608
├─Sequential: 1-5                        [1, 64, 21, 27]           --
|    └─MaxPool2d: 2-6                    [1, 32, 21, 27]           --
|    └─double_conv: 2-7                  [1, 64, 21, 27]           --
|    |    └─Sequential: 3-9              [1, 64, 21, 27]           153,984
├─Sequential: 1-6                        [1, 64, 10, 13]           --
|    └─MaxPool2d: 2-8                    [1, 64, 10, 13]           --
|    └─double_conv: 2-9                  [1, 64, 10, 13]           --
|    |    └─Sequential: 3-10             [1, 64, 10, 13]           74,112
├─transformer_enc_layer: 1-7             [1, 64, 10, 13]           --
|    └─Flatten: 2-10                     [1, 64, 130]              --
|    └─Dropout: 2-11                     [1, 130, 64]              --
|    └─Linear: 2-12                      [1, 130, 64]              4,096
|    └─Linear: 2-13                      [1, 130, 64]              4,096
|    └─Linear: 2-14                      [1, 130, 64]              4,096
|    └─MultiheadAttention: 2-15          [1, 130, 64]              --
|    └─Linear: 2-16                      [1, 130, 64]              4,096
|    └─Dropout: 2-17                     [1, 130, 64]              --
|    └─LayerNorm: 2-18                   [1, 130, 64]              128
|    └─Sequential: 2-19                  [1, 130, 64]              --
|    |    └─Linear: 3-11                 [1, 130, 1024]            66,560
|    |    └─ReLU: 3-12                   [1, 130, 1024]            --
|    |    └─Linear: 3-13                 [1, 130, 64]              65,600
|    └─Dropout: 2-20                     [1, 130, 64]              --
|    └─LayerNorm: 2-21                   [1, 130, 64]              128
├─transformer_enc_layer: 1-8             [1, 64, 10, 13]           --
|    └─Flatten: 2-22                     [1, 64, 130]              --
|    └─Linear: 2-23                      [1, 130, 64]              4,096
|    └─Linear: 2-24                      [1, 130, 64]              4,096
|    └─Linear: 2-25                      [1, 130, 64]              4,096
|    └─MultiheadAttention: 2-26          [1, 130, 64]              --
|    └─Linear: 2-27                      [1, 130, 64]              4,096
|    └─Dropout: 2-28                     [1, 130, 64]              --
|    └─LayerNorm: 2-29                   [1, 130, 64]              128
|    └─Sequential: 2-30                  [1, 130, 64]              --
|    |    └─Linear: 3-14                 [1, 130, 1024]            66,560
|    |    └─ReLU: 3-15                   [1, 130, 1024]            --
|    |    └─Linear: 3-16                 [1, 130, 64]              65,600
|    └─Dropout: 2-31                     [1, 130, 64]              --
|    └─LayerNorm: 2-32                   [1, 130, 64]              128
├─unet_up_concat_padding: 1-9            [1, 128, 21, 27]          --
|    └─Upsample: 2-33                    [1, 64, 20, 26]           --
├─double_conv: 1-10                      [1, 32, 21, 27]           --
|    └─Sequential: 2-34                  [1, 32, 21, 27]           --
|    |    └─Conv2d: 3-17                 [1, 64, 21, 27]           73,792
|    |    └─BatchNorm2d: 3-18            [1, 64, 21, 27]           128
|    |    └─ReLU: 3-19                   [1, 64, 21, 27]           --
|    |    └─Conv2d: 3-20                 [1, 32, 21, 27]           18,464
|    |    └─BatchNorm2d: 3-21            [1, 32, 21, 27]           64
|    |    └─ReLU: 3-22                   [1, 32, 21, 27]           --
├─unet_up_concat_padding: 1-11           [1, 64, 43, 54]           --
|    └─Upsample: 2-35                    [1, 32, 42, 54]           --
├─double_conv: 1-12                      [1, 16, 43, 54]           --
|    └─Sequential: 2-36                  [1, 16, 43, 54]           --
|    |    └─Conv2d: 3-23                 [1, 32, 43, 54]           51,232
|    |    └─BatchNorm2d: 3-24            [1, 32, 43, 54]           64
|    |    └─ReLU: 3-25                   [1, 32, 43, 54]           --
|    |    └─Conv2d: 3-26                 [1, 16, 43, 54]           12,816
|    |    └─BatchNorm2d: 3-27            [1, 16, 43, 54]           32
|    |    └─ReLU: 3-28                   [1, 16, 43, 54]           --
├─unet_up_concat_padding: 1-13           [1, 32, 87, 108]          --
|    └─Upsample: 2-37                    [1, 16, 86, 108]          --
├─double_conv: 1-14                      [1, 8, 87, 108]           --
|    └─Sequential: 2-38                  [1, 8, 87, 108]           --
|    |    └─Conv2d: 3-29                 [1, 16, 87, 108]          41,488
|    |    └─BatchNorm2d: 3-30            [1, 16, 87, 108]          32
|    |    └─ReLU: 3-31                   [1, 16, 87, 108]          --
|    |    └─Conv2d: 3-32                 [1, 8, 87, 108]           10,376
|    |    └─BatchNorm2d: 3-33            [1, 8, 87, 108]           16
|    |    └─ReLU: 3-34                   [1, 8, 87, 108]           --
├─unet_up_concat_padding: 1-15           [1, 16, 174, 216]         --
|    └─Upsample: 2-39                    [1, 8, 174, 216]          --
├─double_conv: 1-16                      [1, 64, 174, 216]         --
|    └─Sequential: 2-40                  [1, 64, 174, 216]         --
|    |    └─Conv2d: 3-35                 [1, 8, 174, 216]          28,808
|    |    └─BatchNorm2d: 3-36            [1, 8, 174, 216]          16
|    |    └─ReLU: 3-37                   [1, 8, 174, 216]          --
|    |    └─Conv2d: 3-38                 [1, 64, 174, 216]         115,264
|    |    └─BatchNorm2d: 3-39            [1, 64, 174, 216]         128
|    |    └─ReLU: 3-40                   [1, 64, 174, 216]         --
├─Sequential: 1-17                       [1, 30, 174, 72]          --
|    └─Conv2d: 2-41                      [1, 30, 174, 72]          17,310
|    └─LeakyReLU: 2-42                   [1, 30, 174, 72]          --
|    └─MaxPool2d: 2-43                   [1, 30, 174, 72]          --
|    └─Dropout: 2-44                     [1, 30, 174, 72]          --
├─Sequential: 1-18                       [1, 20, 100, 72]          --
|    └─Conv2d: 2-45                      [1, 20, 100, 72]          45,020
|    └─LeakyReLU: 2-46                   [1, 20, 100, 72]          --
|    └─Dropout: 2-47                     [1, 20, 100, 72]          --
├─Sequential: 1-19                       [1, 1, 100, 72]           --
|    └─Conv2d: 2-48                      [1, 10, 100, 72]          210
|    └─LeakyReLU: 2-49                   [1, 10, 100, 72]          --
|    └─Dropout: 2-50                     [1, 10, 100, 72]          --
|    └─Conv2d: 2-51                      [1, 1, 100, 72]           11
|    └─Sigmoid: 2-52                     [1, 1, 100, 72]           --
==========================================================================================
Total params: 1,179,911
Trainable params: 1,179,911
Non-trainable params: 0
Total mult-adds (G): 8.79
==========================================================================================
Input size (MB): 0.90
Forward/backward pass size (MB): 77.45
Params size (MB): 4.72
Estimated Total Size (MB): 83.08
…
