…
2021-12-04 13:42:00 | INFO :  --- Model config: -------------------------------------------- 
2021-12-04 13:42:00 | INFO : Model: deep_cnn_segm_sigmoid
2021-12-04 13:42:00 | INFO : Model parameters: {'n_chan_input': 6, 'n_chan_layers': [70, 70, 50, 10], 'n_prefilt_layers': 5, 'residual': True, 'n_bins_in': 216, 'n_bins_out': 72, 'a_lrelu': 0.3, 'p_dropout': 0.2}
2021-12-04 13:42:01 | INFO : 
==========================================================================================
Layer (type:depth-idx)                   Output Shape              Param #
==========================================================================================
├─LayerNorm: 1-1                         [1, 174, 6, 216]          2,592
├─Sequential: 1-2                        [1, 70, 174, 216]         --
|    └─Conv2d: 2-1                       [1, 70, 174, 216]         94,570
|    └─LeakyReLU: 2-2                    [1, 70, 174, 216]         --
|    └─MaxPool2d: 2-3                    [1, 70, 174, 216]         --
|    └─Dropout: 2-4                      [1, 70, 174, 216]         --
├─ModuleList: 1                          []                        --
|    └─Sequential: 2-5                   [1, 70, 174, 216]         --
|    |    └─Conv2d: 3-1                  [1, 70, 174, 216]         1,102,570
|    |    └─LeakyReLU: 3-2               [1, 70, 174, 216]         --
|    |    └─MaxPool2d: 3-3               [1, 70, 174, 216]         --
|    |    └─Dropout: 3-4                 [1, 70, 174, 216]         --
|    └─Sequential: 2-6                   [1, 70, 174, 216]         --
|    |    └─Conv2d: 3-5                  [1, 70, 174, 216]         1,102,570
|    |    └─LeakyReLU: 3-6               [1, 70, 174, 216]         --
|    |    └─MaxPool2d: 3-7               [1, 70, 174, 216]         --
|    |    └─Dropout: 3-8                 [1, 70, 174, 216]         --
|    └─Sequential: 2-7                   [1, 70, 174, 216]         --
|    |    └─Conv2d: 3-9                  [1, 70, 174, 216]         1,102,570
|    |    └─LeakyReLU: 3-10              [1, 70, 174, 216]         --
|    |    └─MaxPool2d: 3-11              [1, 70, 174, 216]         --
|    |    └─Dropout: 3-12                [1, 70, 174, 216]         --
|    └─Sequential: 2-8                   [1, 70, 174, 216]         --
|    |    └─Conv2d: 3-13                 [1, 70, 174, 216]         1,102,570
|    |    └─LeakyReLU: 3-14              [1, 70, 174, 216]         --
|    |    └─MaxPool2d: 3-15              [1, 70, 174, 216]         --
|    |    └─Dropout: 3-16                [1, 70, 174, 216]         --
├─Sequential: 1-3                        [1, 70, 174, 72]          --
|    └─Conv2d: 2-9                       [1, 70, 174, 72]          44,170
|    └─LeakyReLU: 2-10                   [1, 70, 174, 72]          --
|    └─MaxPool2d: 2-11                   [1, 70, 174, 72]          --
|    └─Dropout: 2-12                     [1, 70, 174, 72]          --
├─Sequential: 1-4                        [1, 50, 100, 72]          --
|    └─Conv2d: 2-13                      [1, 50, 100, 72]          262,550
|    └─LeakyReLU: 2-14                   [1, 50, 100, 72]          --
|    └─Dropout: 2-15                     [1, 50, 100, 72]          --
├─Sequential: 1-5                        [1, 1, 100, 72]           --
|    └─Conv2d: 2-16                      [1, 10, 100, 72]          510
|    └─LeakyReLU: 2-17                   [1, 10, 100, 72]          --
|    └─Dropout: 2-18                     [1, 10, 100, 72]          --
|    └─Conv2d: 2-19                      [1, 1, 100, 72]           11
|    └─Sigmoid: 2-20                     [1, 1, 100, 72]           --
==========================================================================================
Total params: 4,814,683
Trainable params: 4,814,683
Non-trainable params: 0
Total mult-adds (G): 171.75
==========================================================================================
Input size (MB): 0.90
Forward/backward pass size (MB): 117.57
Params size (MB): 19.26
Estimated Total Size (MB): 137.73
…
