…
2021-11-30 21:31:12 | INFO : Model parameters: {'n_chan_input': 6, 'n_chan_layers': [64, 30, 20, 10], 'n_ch_out': 2, 'n_bins_in': 216, 'n_bins_out': 72, 'a_lrelu': 0.3, 'p_dropout': 0.2, 'scalefac': 16, 'embed_dim': 416, 'hidden_size': 208, 'lstm_depth': 1, 'lstm_number': 1}
2021-11-30 21:31:12 | INFO : 
==========================================================================================
Layer (type:depth-idx)                   Output Shape              Param #
==========================================================================================
├─LayerNorm: 1-1                         [1, 174, 6, 216]          2,592
├─double_conv: 1-2                       [1, 4, 174, 216]          --
|    └─Sequential: 2-1                   [1, 4, 174, 216]          --
|    |    └─Conv2d: 3-1                  [1, 4, 174, 216]          5,404
|    |    └─BatchNorm2d: 3-2             [1, 4, 174, 216]          8
|    |    └─ReLU: 3-3                    [1, 4, 174, 216]          --
|    |    └─Dropout: 3-4                 [1, 4, 174, 216]          --
|    |    └─Conv2d: 3-5                  [1, 4, 174, 216]          3,604
|    |    └─BatchNorm2d: 3-6             [1, 4, 174, 216]          8
|    |    └─ReLU: 3-7                    [1, 4, 174, 216]          --
|    |    └─Dropout: 3-8                 [1, 4, 174, 216]          --
├─Sequential: 1-3                        [1, 8, 87, 108]           --
|    └─MaxPool2d: 2-2                    [1, 4, 87, 108]           --
|    └─double_conv: 2-3                  [1, 8, 87, 108]           --
|    |    └─Sequential: 3-9              [1, 8, 87, 108]           21,648
├─Sequential: 1-4                        [1, 16, 43, 54]           --
|    └─MaxPool2d: 2-4                    [1, 8, 43, 54]            --
|    └─double_conv: 2-5                  [1, 16, 43, 54]           --
|    |    └─Sequential: 3-10             [1, 16, 43, 54]           31,200
├─Sequential: 1-5                        [1, 32, 21, 27]           --
|    └─MaxPool2d: 2-6                    [1, 16, 21, 27]           --
|    └─double_conv: 2-7                  [1, 32, 21, 27]           --
|    |    └─Sequential: 3-11             [1, 32, 21, 27]           38,592
├─Sequential: 1-6                        [1, 32, 10, 13]           --
|    └─MaxPool2d: 2-8                    [1, 32, 10, 13]           --
|    └─double_conv: 2-9                  [1, 32, 10, 13]           --
|    |    └─Sequential: 3-12             [1, 32, 10, 13]           18,624
├─blstm_temporal_enc_layer: 1-7          [1, 32, 10, 13]           --
|    └─Flatten: 2-10                     [1, 416, 10]              --
|    └─LSTM: 2-11                        [1, 10, 416]              1,041,664
├─unet_up_concat_padding: 1-8            [1, 64, 21, 27]           --
|    └─Upsample: 2-12                    [1, 32, 20, 26]           --
├─double_conv: 1-9                       [1, 16, 21, 27]           --
|    └─Sequential: 2-13                  [1, 16, 21, 27]           --
|    |    └─Conv2d: 3-13                 [1, 32, 21, 27]           18,464
|    |    └─BatchNorm2d: 3-14            [1, 32, 21, 27]           64
|    |    └─ReLU: 3-15                   [1, 32, 21, 27]           --
|    |    └─Dropout: 3-16                [1, 32, 21, 27]           --
|    |    └─Conv2d: 3-17                 [1, 16, 21, 27]           4,624
|    |    └─BatchNorm2d: 3-18            [1, 16, 21, 27]           32
|    |    └─ReLU: 3-19                   [1, 16, 21, 27]           --
|    |    └─Dropout: 3-20                [1, 16, 21, 27]           --
├─unet_up_concat_padding: 1-10           [1, 32, 43, 54]           --
|    └─Upsample: 2-14                    [1, 16, 42, 54]           --
├─double_conv: 1-11                      [1, 8, 43, 54]            --
|    └─Sequential: 2-15                  [1, 8, 43, 54]            --
|    |    └─Conv2d: 3-21                 [1, 16, 43, 54]           12,816
|    |    └─BatchNorm2d: 3-22            [1, 16, 43, 54]           32
|    |    └─ReLU: 3-23                   [1, 16, 43, 54]           --
|    |    └─Dropout: 3-24                [1, 16, 43, 54]           --
|    |    └─Conv2d: 3-25                 [1, 8, 43, 54]            3,208
|    |    └─BatchNorm2d: 3-26            [1, 8, 43, 54]            16
|    |    └─ReLU: 3-27                   [1, 8, 43, 54]            --
|    |    └─Dropout: 3-28                [1, 8, 43, 54]            --
├─unet_up_concat_padding: 1-12           [1, 16, 87, 108]          --
|    └─Upsample: 2-16                    [1, 8, 86, 108]           --
├─double_conv: 1-13                      [1, 4, 87, 108]           --
|    └─Sequential: 2-17                  [1, 4, 87, 108]           --
|    |    └─Conv2d: 3-29                 [1, 8, 87, 108]           10,376
|    |    └─BatchNorm2d: 3-30            [1, 8, 87, 108]           16
|    |    └─ReLU: 3-31                   [1, 8, 87, 108]           --
|    |    └─Dropout: 3-32                [1, 8, 87, 108]           --
|    |    └─Conv2d: 3-33                 [1, 4, 87, 108]           2,596
|    |    └─BatchNorm2d: 3-34            [1, 4, 87, 108]           8
|    |    └─ReLU: 3-35                   [1, 4, 87, 108]           --
|    |    └─Dropout: 3-36                [1, 4, 87, 108]           --
├─unet_up_concat_padding: 1-14           [1, 8, 174, 216]          --
|    └─Upsample: 2-18                    [1, 4, 174, 216]          --
├─double_conv: 1-15                      [1, 64, 174, 216]         --
|    └─Sequential: 2-19                  [1, 64, 174, 216]         --
|    |    └─Conv2d: 3-37                 [1, 4, 174, 216]          7,204
|    |    └─BatchNorm2d: 3-38            [1, 4, 174, 216]          8
|    |    └─ReLU: 3-39                   [1, 4, 174, 216]          --
|    |    └─Dropout: 3-40                [1, 4, 174, 216]          --
|    |    └─Conv2d: 3-41                 [1, 64, 174, 216]         57,664
|    |    └─BatchNorm2d: 3-42            [1, 64, 174, 216]         128
|    |    └─ReLU: 3-43                   [1, 64, 174, 216]         --
|    |    └─Dropout: 3-44                [1, 64, 174, 216]         --
├─Sequential: 1-16                       [1, 30, 174, 72]          --
|    └─Conv2d: 2-20                      [1, 30, 174, 72]          17,310
|    └─LeakyReLU: 2-21                   [1, 30, 174, 72]          --
|    └─MaxPool2d: 2-22                   [1, 30, 174, 72]          --
|    └─Dropout: 2-23                     [1, 30, 174, 72]          --
├─Sequential: 1-17                       [1, 20, 100, 72]          --
|    └─Conv2d: 2-24                      [1, 20, 100, 72]          45,020
|    └─LeakyReLU: 2-25                   [1, 20, 100, 72]          --
|    └─Dropout: 2-26                     [1, 20, 100, 72]          --
├─Sequential: 1-18                       [1, 1, 100, 72]           --
|    └─Conv2d: 2-27                      [1, 10, 100, 72]          210
|    └─LeakyReLU: 2-28                   [1, 10, 100, 72]          --
|    └─Dropout: 2-29                     [1, 10, 100, 72]          --
|    └─Conv2d: 2-30                      [1, 1, 100, 72]           11
|    └─Sigmoid: 2-31                     [1, 1, 100, 72]           --
==========================================================================================
Total params: 1,343,151
Trainable params: 1,343,151
Non-trainable params: 0
Total mult-adds (G): 3.79
==========================================================================================
Input size (MB): 0.90
Forward/backward pass size (MB): 59.77
Params size (MB): 5.37
Estimated Total Size (MB): 66.05
…
