…
2021-11-30 21:31:11 | INFO : Model parameters: {'n_chan_input': 6, 'n_chan_layers': [128, 200, 150, 150], 'n_ch_out': 2, 'n_bins_in': 216, 'n_bins_out': 72, 'a_lrelu': 0.3, 'p_dropout': 0.2, 'scalefac': 4, 'embed_dim': 1664, 'hidden_size': 832, 'lstm_depth': 1, 'lstm_number': 1}
2021-11-30 21:31:12 | INFO : 
==========================================================================================
Layer (type:depth-idx)                   Output Shape              Param #
==========================================================================================
├─LayerNorm: 1-1                         [1, 174, 6, 216]          2,592
├─double_conv: 1-2                       [1, 16, 174, 216]         --
|    └─Sequential: 2-1                   [1, 16, 174, 216]         --
|    |    └─Conv2d: 3-1                  [1, 16, 174, 216]         21,616
|    |    └─BatchNorm2d: 3-2             [1, 16, 174, 216]         32
|    |    └─ReLU: 3-3                    [1, 16, 174, 216]         --
|    |    └─Dropout: 3-4                 [1, 16, 174, 216]         --
|    |    └─Conv2d: 3-5                  [1, 16, 174, 216]         57,616
|    |    └─BatchNorm2d: 3-6             [1, 16, 174, 216]         32
|    |    └─ReLU: 3-7                    [1, 16, 174, 216]         --
|    |    └─Dropout: 3-8                 [1, 16, 174, 216]         --
├─Sequential: 1-3                        [1, 32, 87, 108]          --
|    └─MaxPool2d: 2-2                    [1, 16, 87, 108]          --
|    └─double_conv: 2-3                  [1, 32, 87, 108]          --
|    |    └─Sequential: 3-9              [1, 32, 87, 108]          345,792
├─Sequential: 1-4                        [1, 64, 43, 54]           --
|    └─MaxPool2d: 2-4                    [1, 32, 43, 54]           --
|    └─double_conv: 2-5                  [1, 64, 43, 54]           --
|    |    └─Sequential: 3-10             [1, 64, 43, 54]           498,048
├─Sequential: 1-5                        [1, 128, 21, 27]          --
|    └─MaxPool2d: 2-6                    [1, 64, 21, 27]           --
|    └─double_conv: 2-7                  [1, 128, 21, 27]          --
|    |    └─Sequential: 3-11             [1, 128, 21, 27]          615,168
├─Sequential: 1-6                        [1, 128, 10, 13]          --
|    └─MaxPool2d: 2-8                    [1, 128, 10, 13]          --
|    └─double_conv: 2-9                  [1, 128, 10, 13]          --
|    |    └─Sequential: 3-12             [1, 128, 10, 13]          295,680
├─blstm_temporal_enc_layer: 1-7          [1, 128, 10, 13]          --
|    └─Flatten: 2-10                     [1, 1664, 10]             --
|    └─LSTM: 2-11                        [1, 10, 1664]             16,626,688
├─unet_up_concat_padding: 1-8            [1, 256, 21, 27]          --
|    └─Upsample: 2-12                    [1, 128, 20, 26]          --
├─double_conv: 1-9                       [1, 64, 21, 27]           --
|    └─Sequential: 2-13                  [1, 64, 21, 27]           --
|    |    └─Conv2d: 3-13                 [1, 128, 21, 27]          295,040
|    |    └─BatchNorm2d: 3-14            [1, 128, 21, 27]          256
|    |    └─ReLU: 3-15                   [1, 128, 21, 27]          --
|    |    └─Dropout: 3-16                [1, 128, 21, 27]          --
|    |    └─Conv2d: 3-17                 [1, 64, 21, 27]           73,792
|    |    └─BatchNorm2d: 3-18            [1, 64, 21, 27]           128
|    |    └─ReLU: 3-19                   [1, 64, 21, 27]           --
|    |    └─Dropout: 3-20                [1, 64, 21, 27]           --
├─unet_up_concat_padding: 1-10           [1, 128, 43, 54]          --
|    └─Upsample: 2-14                    [1, 64, 42, 54]           --
├─double_conv: 1-11                      [1, 32, 43, 54]           --
|    └─Sequential: 2-15                  [1, 32, 43, 54]           --
|    |    └─Conv2d: 3-21                 [1, 64, 43, 54]           204,864
|    |    └─BatchNorm2d: 3-22            [1, 64, 43, 54]           128
|    |    └─ReLU: 3-23                   [1, 64, 43, 54]           --
|    |    └─Dropout: 3-24                [1, 64, 43, 54]           --
|    |    └─Conv2d: 3-25                 [1, 32, 43, 54]           51,232
|    |    └─BatchNorm2d: 3-26            [1, 32, 43, 54]           64
|    |    └─ReLU: 3-27                   [1, 32, 43, 54]           --
|    |    └─Dropout: 3-28                [1, 32, 43, 54]           --
├─unet_up_concat_padding: 1-12           [1, 64, 87, 108]          --
|    └─Upsample: 2-16                    [1, 32, 86, 108]          --
├─double_conv: 1-13                      [1, 16, 87, 108]          --
|    └─Sequential: 2-17                  [1, 16, 87, 108]          --
|    |    └─Conv2d: 3-29                 [1, 32, 87, 108]          165,920
|    |    └─BatchNorm2d: 3-30            [1, 32, 87, 108]          64
|    |    └─ReLU: 3-31                   [1, 32, 87, 108]          --
|    |    └─Dropout: 3-32                [1, 32, 87, 108]          --
|    |    └─Conv2d: 3-33                 [1, 16, 87, 108]          41,488
|    |    └─BatchNorm2d: 3-34            [1, 16, 87, 108]          32
|    |    └─ReLU: 3-35                   [1, 16, 87, 108]          --
|    |    └─Dropout: 3-36                [1, 16, 87, 108]          --
├─unet_up_concat_padding: 1-14           [1, 32, 174, 216]         --
|    └─Upsample: 2-18                    [1, 16, 174, 216]         --
├─double_conv: 1-15                      [1, 128, 174, 216]        --
|    └─Sequential: 2-19                  [1, 128, 174, 216]        --
|    |    └─Conv2d: 3-37                 [1, 16, 174, 216]         115,216
|    |    └─BatchNorm2d: 3-38            [1, 16, 174, 216]         32
|    |    └─ReLU: 3-39                   [1, 16, 174, 216]         --
|    |    └─Dropout: 3-40                [1, 16, 174, 216]         --
|    |    └─Conv2d: 3-41                 [1, 128, 174, 216]        460,928
|    |    └─BatchNorm2d: 3-42            [1, 128, 174, 216]        256
|    |    └─ReLU: 3-43                   [1, 128, 174, 216]        --
|    |    └─Dropout: 3-44                [1, 128, 174, 216]        --
├─Sequential: 1-16                       [1, 200, 174, 72]         --
|    └─Conv2d: 2-20                      [1, 200, 174, 72]         230,600
|    └─LeakyReLU: 2-21                   [1, 200, 174, 72]         --
|    └─MaxPool2d: 2-22                   [1, 200, 174, 72]         --
|    └─Dropout: 2-23                     [1, 200, 174, 72]         --
├─Sequential: 1-17                       [1, 150, 100, 72]         --
|    └─Conv2d: 2-24                      [1, 150, 100, 72]         2,250,150
|    └─LeakyReLU: 2-25                   [1, 150, 100, 72]         --
|    └─Dropout: 2-26                     [1, 150, 100, 72]         --
├─Sequential: 1-18                       [1, 1, 100, 72]           --
|    └─Conv2d: 2-27                      [1, 150, 100, 72]         22,650
|    └─LeakyReLU: 2-28                   [1, 150, 100, 72]         --
|    └─Dropout: 2-29                     [1, 150, 100, 72]         --
|    └─Conv2d: 2-30                      [1, 1, 100, 72]           151
|    └─Sigmoid: 2-31                     [1, 1, 100, 72]           --
==========================================================================================
Total params: 22,376,255
Trainable params: 22,376,255
Non-trainable params: 0
Total mult-adds (G): 51.46
==========================================================================================
Input size (MB): 0.90
Forward/backward pass size (MB): 174.91
Params size (MB): 89.51
Estimated Total Size (MB): 265.32
…
