…
2021-12-02 07:39:47 | INFO :  --- Model config: -------------------------------------------- 
2021-12-02 07:39:47 | INFO : Model: simple_u_net_largekernels
2021-12-02 07:39:47 | INFO : Model parameters: {'n_chan_input': 6, 'n_chan_layers': [128, 150, 100, 80], 'n_ch_out': 2, 'n_bins_in': 216, 'n_bins_out': 72, 'a_lrelu': 0.3, 'p_dropout': 0.2, 'scalefac': 4}
2021-12-02 07:39:48 | INFO : 
==========================================================================================
Layer (type:depth-idx)                   Output Shape              Param #
==========================================================================================
├─LayerNorm: 1-1                         [1, 174, 6, 216]          2,592
├─double_conv: 1-2                       [1, 16, 174, 216]         --
|    └─Sequential: 2-1                   [1, 16, 174, 216]         --
|    |    └─Conv2d: 3-1                  [1, 16, 174, 216]         21,616
|    |    └─BatchNorm2d: 3-2             [1, 16, 174, 216]         32
|    |    └─ReLU: 3-3                    [1, 16, 174, 216]         --
|    |    └─Dropout: 3-4                 [1, 16, 174, 216]         --
|    |    └─Conv2d: 3-5                  [1, 16, 174, 216]         57,616
|    |    └─BatchNorm2d: 3-6             [1, 16, 174, 216]         32
|    |    └─ReLU: 3-7                    [1, 16, 174, 216]         --
|    |    └─Dropout: 3-8                 [1, 16, 174, 216]         --
├─Sequential: 1-3                        [1, 32, 87, 108]          --
|    └─MaxPool2d: 2-2                    [1, 16, 87, 108]          --
|    └─double_conv: 2-3                  [1, 32, 87, 108]          --
|    |    └─Sequential: 3-9              [1, 32, 87, 108]          345,792
├─Sequential: 1-4                        [1, 64, 43, 54]           --
|    └─MaxPool2d: 2-4                    [1, 32, 43, 54]           --
|    └─double_conv: 2-5                  [1, 64, 43, 54]           --
|    |    └─Sequential: 3-10             [1, 64, 43, 54]           498,048
├─Sequential: 1-5                        [1, 128, 21, 27]          --
|    └─MaxPool2d: 2-6                    [1, 64, 21, 27]           --
|    └─double_conv: 2-7                  [1, 128, 21, 27]          --
|    |    └─Sequential: 3-11             [1, 128, 21, 27]          615,168
├─Sequential: 1-6                        [1, 128, 10, 13]          --
|    └─MaxPool2d: 2-8                    [1, 128, 10, 13]          --
|    └─double_conv: 2-9                  [1, 128, 10, 13]          --
|    |    └─Sequential: 3-12             [1, 128, 10, 13]          295,680
├─unet_up_concat_padding: 1-7            [1, 256, 21, 27]          --
|    └─Upsample: 2-10                    [1, 128, 20, 26]          --
├─double_conv: 1-8                       [1, 64, 21, 27]           --
|    └─Sequential: 2-11                  [1, 64, 21, 27]           --
|    |    └─Conv2d: 3-13                 [1, 128, 21, 27]          295,040
|    |    └─BatchNorm2d: 3-14            [1, 128, 21, 27]          256
|    |    └─ReLU: 3-15                   [1, 128, 21, 27]          --
|    |    └─Dropout: 3-16                [1, 128, 21, 27]          --
|    |    └─Conv2d: 3-17                 [1, 64, 21, 27]           73,792
|    |    └─BatchNorm2d: 3-18            [1, 64, 21, 27]           128
|    |    └─ReLU: 3-19                   [1, 64, 21, 27]           --
|    |    └─Dropout: 3-20                [1, 64, 21, 27]           --
├─unet_up_concat_padding: 1-9            [1, 128, 43, 54]          --
|    └─Upsample: 2-12                    [1, 64, 42, 54]           --
├─double_conv: 1-10                      [1, 32, 43, 54]           --
|    └─Sequential: 2-13                  [1, 32, 43, 54]           --
|    |    └─Conv2d: 3-21                 [1, 64, 43, 54]           204,864
|    |    └─BatchNorm2d: 3-22            [1, 64, 43, 54]           128
|    |    └─ReLU: 3-23                   [1, 64, 43, 54]           --
|    |    └─Dropout: 3-24                [1, 64, 43, 54]           --
|    |    └─Conv2d: 3-25                 [1, 32, 43, 54]           51,232
|    |    └─BatchNorm2d: 3-26            [1, 32, 43, 54]           64
|    |    └─ReLU: 3-27                   [1, 32, 43, 54]           --
|    |    └─Dropout: 3-28                [1, 32, 43, 54]           --
├─unet_up_concat_padding: 1-11           [1, 64, 87, 108]          --
|    └─Upsample: 2-14                    [1, 32, 86, 108]          --
├─double_conv: 1-12                      [1, 16, 87, 108]          --
|    └─Sequential: 2-15                  [1, 16, 87, 108]          --
|    |    └─Conv2d: 3-29                 [1, 32, 87, 108]          165,920
|    |    └─BatchNorm2d: 3-30            [1, 32, 87, 108]          64
|    |    └─ReLU: 3-31                   [1, 32, 87, 108]          --
|    |    └─Dropout: 3-32                [1, 32, 87, 108]          --
|    |    └─Conv2d: 3-33                 [1, 16, 87, 108]          41,488
|    |    └─BatchNorm2d: 3-34            [1, 16, 87, 108]          32
|    |    └─ReLU: 3-35                   [1, 16, 87, 108]          --
|    |    └─Dropout: 3-36                [1, 16, 87, 108]          --
├─unet_up_concat_padding: 1-13           [1, 32, 174, 216]         --
|    └─Upsample: 2-16                    [1, 16, 174, 216]         --
├─double_conv: 1-14                      [1, 128, 174, 216]        --
|    └─Sequential: 2-17                  [1, 128, 174, 216]        --
|    |    └─Conv2d: 3-37                 [1, 16, 174, 216]         115,216
|    |    └─BatchNorm2d: 3-38            [1, 16, 174, 216]         32
|    |    └─ReLU: 3-39                   [1, 16, 174, 216]         --
|    |    └─Dropout: 3-40                [1, 16, 174, 216]         --
|    |    └─Conv2d: 3-41                 [1, 128, 174, 216]        460,928
|    |    └─BatchNorm2d: 3-42            [1, 128, 174, 216]        256
|    |    └─ReLU: 3-43                   [1, 128, 174, 216]        --
|    |    └─Dropout: 3-44                [1, 128, 174, 216]        --
├─Sequential: 1-15                       [1, 150, 174, 72]         --
|    └─Conv2d: 2-18                      [1, 150, 174, 72]         172,950
|    └─LeakyReLU: 2-19                   [1, 150, 174, 72]         --
|    └─MaxPool2d: 2-20                   [1, 150, 174, 72]         --
|    └─Dropout: 2-21                     [1, 150, 174, 72]         --
├─Sequential: 1-16                       [1, 100, 100, 72]         --
|    └─Conv2d: 2-22                      [1, 100, 100, 72]         1,125,100
|    └─LeakyReLU: 2-23                   [1, 100, 100, 72]         --
|    └─Dropout: 2-24                     [1, 100, 100, 72]         --
├─Sequential: 1-17                       [1, 1, 100, 72]           --
|    └─Conv2d: 2-25                      [1, 80, 100, 72]          8,080
|    └─LeakyReLU: 2-26                   [1, 80, 100, 72]          --
|    └─Dropout: 2-27                     [1, 80, 100, 72]          --
|    └─Conv2d: 2-28                      [1, 1, 100, 72]           81
|    └─Sigmoid: 2-29                     [1, 1, 100, 72]           --
==========================================================================================
Total params: 4,552,227
Trainable params: 4,552,227
Non-trainable params: 0
Total mult-adds (G): 42.50
==========================================================================================
Input size (MB): 0.90
Forward/backward pass size (MB): 162.86
Params size (MB): 18.21
Estimated Total Size (MB): 181.97
…
