…
2021-12-05 10:39:54 | INFO : Model parameters: {'n_chan_input': 6, 'n_chan_layers': [128, 200, 150, 150], 'n_ch_out': 2, 'n_bins_in': 216, 'n_bins_out': 72, 'a_lrelu': 0.3, 'p_dropout': 0.2, 'scalefac': 2, 'embed_dim': 256, 'num_heads': 8, 'mlp_dim': 8192, 'pos_encoding': 'sinusoidal'}
2021-12-05 10:39:55 | INFO : 
==========================================================================================
Layer (type:depth-idx)                   Output Shape              Param #
==========================================================================================
├─LayerNorm: 1-1                         [1, 174, 6, 216]          2,592
├─double_conv: 1-2                       [1, 32, 174, 216]         --
|    └─Sequential: 2-1                   [1, 32, 174, 216]         --
|    |    └─Conv2d: 3-1                  [1, 32, 174, 216]         43,232
|    |    └─BatchNorm2d: 3-2             [1, 32, 174, 216]         64
|    |    └─ReLU: 3-3                    [1, 32, 174, 216]         --
|    |    └─Dropout: 3-4                 [1, 32, 174, 216]         --
|    |    └─Conv2d: 3-5                  [1, 32, 174, 216]         230,432
|    |    └─BatchNorm2d: 3-6             [1, 32, 174, 216]         64
|    |    └─ReLU: 3-7                    [1, 32, 174, 216]         --
|    |    └─Dropout: 3-8                 [1, 32, 174, 216]         --
├─Sequential: 1-3                        [1, 64, 87, 108]          --
|    └─MaxPool2d: 2-2                    [1, 32, 87, 108]          --
|    └─double_conv: 2-3                  [1, 64, 87, 108]          --
|    |    └─Sequential: 3-9              [1, 64, 87, 108]          1,382,784
├─Sequential: 1-4                        [1, 128, 43, 54]          --
|    └─MaxPool2d: 2-4                    [1, 64, 43, 54]           --
|    └─double_conv: 2-5                  [1, 128, 43, 54]          --
|    |    └─Sequential: 3-10             [1, 128, 43, 54]          1,991,424
├─Sequential: 1-5                        [1, 256, 21, 27]          --
|    └─MaxPool2d: 2-6                    [1, 128, 21, 27]          --
|    └─double_conv: 2-7                  [1, 256, 21, 27]          --
|    |    └─Sequential: 3-11             [1, 256, 21, 27]          2,459,136
├─Sequential: 1-6                        [1, 256, 10, 13]          --
|    └─MaxPool2d: 2-8                    [1, 256, 10, 13]          --
|    └─double_conv: 2-9                  [1, 256, 10, 13]          --
|    |    └─Sequential: 3-12             [1, 256, 10, 13]          1,181,184
├─transformer_enc_layer: 1-7             [1, 256, 10, 13]          --
|    └─Flatten: 2-10                     [1, 256, 130]             --
|    └─Dropout: 2-11                     [1, 130, 256]             --
|    └─Linear: 2-12                      [1, 130, 256]             65,536
|    └─Linear: 2-13                      [1, 130, 256]             65,536
|    └─Linear: 2-14                      [1, 130, 256]             65,536
|    └─MultiheadAttention: 2-15          [1, 130, 256]             --
|    └─Linear: 2-16                      [1, 130, 256]             65,536
|    └─Dropout: 2-17                     [1, 130, 256]             --
|    └─LayerNorm: 2-18                   [1, 130, 256]             512
|    └─Sequential: 2-19                  [1, 130, 256]             --
|    |    └─Linear: 3-13                 [1, 130, 8192]            2,105,344
|    |    └─ReLU: 3-14                   [1, 130, 8192]            --
|    |    └─Linear: 3-15                 [1, 130, 256]             2,097,408
|    └─Dropout: 2-20                     [1, 130, 256]             --
|    └─LayerNorm: 2-21                   [1, 130, 256]             512
├─transformer_enc_layer: 1-8             [1, 256, 10, 13]          --
|    └─Flatten: 2-22                     [1, 256, 130]             --
|    └─Linear: 2-23                      [1, 130, 256]             65,536
|    └─Linear: 2-24                      [1, 130, 256]             65,536
|    └─Linear: 2-25                      [1, 130, 256]             65,536
|    └─MultiheadAttention: 2-26          [1, 130, 256]             --
|    └─Linear: 2-27                      [1, 130, 256]             65,536
|    └─Dropout: 2-28                     [1, 130, 256]             --
|    └─LayerNorm: 2-29                   [1, 130, 256]             512
|    └─Sequential: 2-30                  [1, 130, 256]             --
|    |    └─Linear: 3-16                 [1, 130, 8192]            2,105,344
|    |    └─ReLU: 3-17                   [1, 130, 8192]            --
|    |    └─Linear: 3-18                 [1, 130, 256]             2,097,408
|    └─Dropout: 2-31                     [1, 130, 256]             --
|    └─LayerNorm: 2-32                   [1, 130, 256]             512
├─unet_up_concat_padding: 1-9            [1, 512, 21, 27]          --
|    └─Upsample: 2-33                    [1, 256, 20, 26]          --
├─double_conv: 1-10                      [1, 128, 21, 27]          --
|    └─Sequential: 2-34                  [1, 128, 21, 27]          --
|    |    └─Conv2d: 3-19                 [1, 256, 21, 27]          1,179,904
|    |    └─BatchNorm2d: 3-20            [1, 256, 21, 27]          512
|    |    └─ReLU: 3-21                   [1, 256, 21, 27]          --
|    |    └─Dropout: 3-22                [1, 256, 21, 27]          --
|    |    └─Conv2d: 3-23                 [1, 128, 21, 27]          295,040
|    |    └─BatchNorm2d: 3-24            [1, 128, 21, 27]          256
|    |    └─ReLU: 3-25                   [1, 128, 21, 27]          --
|    |    └─Dropout: 3-26                [1, 128, 21, 27]          --
├─unet_up_concat_padding: 1-11           [1, 256, 43, 54]          --
|    └─Upsample: 2-35                    [1, 128, 42, 54]          --
├─double_conv: 1-12                      [1, 64, 43, 54]           --
|    └─Sequential: 2-36                  [1, 64, 43, 54]           --
|    |    └─Conv2d: 3-27                 [1, 128, 43, 54]          819,328
|    |    └─BatchNorm2d: 3-28            [1, 128, 43, 54]          256
|    |    └─ReLU: 3-29                   [1, 128, 43, 54]          --
|    |    └─Dropout: 3-30                [1, 128, 43, 54]          --
|    |    └─Conv2d: 3-31                 [1, 64, 43, 54]           204,864
|    |    └─BatchNorm2d: 3-32            [1, 64, 43, 54]           128
|    |    └─ReLU: 3-33                   [1, 64, 43, 54]           --
|    |    └─Dropout: 3-34                [1, 64, 43, 54]           --
├─unet_up_concat_padding: 1-13           [1, 128, 87, 108]         --
|    └─Upsample: 2-37                    [1, 64, 86, 108]          --
├─double_conv: 1-14                      [1, 32, 87, 108]          --
|    └─Sequential: 2-38                  [1, 32, 87, 108]          --
|    |    └─Conv2d: 3-35                 [1, 64, 87, 108]          663,616
|    |    └─BatchNorm2d: 3-36            [1, 64, 87, 108]          128
|    |    └─ReLU: 3-37                   [1, 64, 87, 108]          --
|    |    └─Dropout: 3-38                [1, 64, 87, 108]          --
|    |    └─Conv2d: 3-39                 [1, 32, 87, 108]          165,920
|    |    └─BatchNorm2d: 3-40            [1, 32, 87, 108]          64
|    |    └─ReLU: 3-41                   [1, 32, 87, 108]          --
|    |    └─Dropout: 3-42                [1, 32, 87, 108]          --
├─unet_up_concat_padding: 1-15           [1, 64, 174, 216]         --
|    └─Upsample: 2-39                    [1, 32, 174, 216]         --
├─double_conv: 1-16                      [1, 128, 174, 216]        --
|    └─Sequential: 2-40                  [1, 128, 174, 216]        --
|    |    └─Conv2d: 3-43                 [1, 32, 174, 216]         460,832
|    |    └─BatchNorm2d: 3-44            [1, 32, 174, 216]         64
|    |    └─ReLU: 3-45                   [1, 32, 174, 216]         --
|    |    └─Dropout: 3-46                [1, 32, 174, 216]         --
|    |    └─Conv2d: 3-47                 [1, 128, 174, 216]        921,728
|    |    └─BatchNorm2d: 3-48            [1, 128, 174, 216]        256
|    |    └─ReLU: 3-49                   [1, 128, 174, 216]        --
|    |    └─Dropout: 3-50                [1, 128, 174, 216]        --
├─Sequential: 1-17                       [1, 200, 174, 72]         --
|    └─Conv2d: 2-41                      [1, 200, 174, 72]         230,600
|    └─LeakyReLU: 2-42                   [1, 200, 174, 72]         --
|    └─MaxPool2d: 2-43                   [1, 200, 174, 72]         --
|    └─Dropout: 2-44                     [1, 200, 174, 72]         --
├─Sequential: 1-18                       [1, 150, 100, 72]         --
|    └─Conv2d: 2-45                      [1, 150, 100, 72]         2,250,150
|    └─LeakyReLU: 2-46                   [1, 150, 100, 72]         --
|    └─Dropout: 2-47                     [1, 150, 100, 72]         --
├─Sequential: 1-19                       [1, 1, 100, 72]           --
|    └─Conv2d: 2-48                      [1, 150, 100, 72]         22,650
|    └─LeakyReLU: 2-49                   [1, 150, 100, 72]         --
|    └─Dropout: 2-50                     [1, 150, 100, 72]         --
|    └─Conv2d: 2-51                      [1, 1, 100, 72]           151
|    └─Sigmoid: 2-52                     [1, 1, 100, 72]           --
==========================================================================================
Total params: 23,439,199
Trainable params: 23,439,199
Non-trainable params: 0
Total mult-adds (G): 111.71
==========================================================================================
Input size (MB): 0.90
Forward/backward pass size (MB): 254.17
Params size (MB): 93.76
Estimated Total Size (MB): 348.83
…
